Axon 02/chatbot.pth (torch, 17557 bytes, 6 tensors)

l1.weight f4 [8, 284]
0	0x3da00382	0.07813169
1	0x3e69f0ea	0.22845808
2	0xb9e4ab68	-0.00043615256
3	0x3e66090c	0.22464389
4	0x3e23e1eb	0.1600415
5	0x3dea0758	0.11427182
6	0xbd7c0214	-0.06152542
7	0x3e605222	0.21906331
8	0xbdc35f25	-0.09539632
9	0xbb8bc4b4	-0.004265392
10	0x3de6e2b4	0.11273709
11	0xbd89c077	-0.06726163
12	0x3cc59550	0.02411905
13	0xbdca510e	-0.09878741
14	0xbdda1996	-0.106494114
15	0x3e02738a	0.12739387
16	0x3c6de729	0.014520445
17	0xbcedb7c0	-0.029018283
18	0x3d63c295	0.05560549
19	0x3e0306d5	0.12795575
20	0xbd4f4d07	-0.05061057
21	0xbd995a6d	-0.074879505
22	0x3e0e4aba	0.13895693
23	0x3e15b3c7	0.14619361
24	0x3e2207b5	0.15823252
25	0xbcc70d7f	-0.024298428
26	0x3e0e8601	0.13918306
27	0x3eadb5a0	0.3392763
28	0xbe32ada4	-0.17449051
29	0x3d84b11f	0.06479096
30	0xbbd19f53	-0.0063971668
31	0x3dce571c	0.100752085
32	0x3c82a39f	0.015947161
33	0x3d97614b	0.07391604
34	0xbd66bc22	-0.05633176
35	0xbd0205f1	-0.031743947
36	0x3dd22590	0.10261071
37	0xbc0cc1bf	-0.008591115
38	0x3d0fbea6	0.035093926
39	0x3d7d5c24	0.06185545
40	0x3c8f50e8	0.017494634
41	0xbe1c8b67	-0.15287553
42	0x3dfd105f	0.12356638
43	0x3996521f	0.00028671414
44	0x3d930e49	0.07180459
45	0xbcf9435a	-0.030427624
46	0x3e281366	0.1641365
47	0x3e1356f5	0.1438864
48	0xbdd86eef	-0.10568034
49	0xbdb0c344	-0.08630994
50	0xbd12ea96	-0.03586825
51	0x3b0ef722	0.0021814783
52	0xbe0286bc	-0.1274671
53	0xbe1dcc14	-0.15409881
54	0xbd45dfbf	-0.048309084
55	0xbdc45799	-0.095870204
56	0xbe26f3be	-0.16303918
57	0xbd2fe036	-0.042938434
58	0x3cd74651	0.026278647
59	0x3d78bf46	0.060729288
60	0xbdd364f5	-0.103219904
61	0xbd71bd84	-0.059018627
62	0xbd2d4e12	-0.04231078
63	0x3e440d2e	0.19145653
64	0x3d4a11cb	0.049333375
65	0xbde9e6a2	-0.11420943
66	0xbd788128	-0.060670048
67	0xbde70ab6	-0.1128134
68	0x3dbe4ab2	0.09291591
69	0xbdbe7c2e	-0.09301029
70	0x3dc23d4e	0.09484349
71	0x3dadc318	0.08484477
72	0xbe02ae95	-0.1276191
73	0x3e079db2	0.1324375
74	0xbd2edc29	-0.04269043
75	0x3dc72863	0.097245
76	0x3e08bc4b	0.13353078
77	0xbd82a2f1	-0.06378735
78	0x3e298212	0.16553524
79	0xbd35617c	-0.04428242
80	0x3c2be57d	0.010491726
81	0xbcd9649d	-0.026537234
82	0x3d9f0570	0.07764709
83	0xbc48deb3	-0.012260127
84	0x3bff4a18	0.007790815
85	0xbd94dd34	-0.07268754
86	0xbd070de2	-0.032972224
87	0xbd6b1539	-0.057393286
88	0x3dffc112	0.12487997
89	0x3db0b46b	0.08628162
90	0xbd9214ba	-0.071328595
91	0xbdc1299d	-0.09431765
92	0xbd51c908	-0.05121711
93	0xbd40a984	-0.047036663
94	0x3e508cc4	0.20366198
95	0xbde630ab	-0.112397514
96	0x3e1839e0	0.14865828
97	0x3d83f70b	0.06443604
98	0xbe145aea	-0.14487806
99	0xbe2ee37e	-0.17078969
100	0xbb0b5e6e	-0.0021266001
101	0xbe1c514b	-0.15265386
102	0xbe0db500	-0.13838577
103	0xbdf18db0	-0.11794603
104	0xbdf9ee71	-0.12203682
105	0xbdaa3545	-0.083109416
106	0xbc57f5a9	-0.013181129
107	0x3d654618	0.05597505
108	0x3e8eb834	0.2787491
109	0xbd5644ce	-0.05231171
110	0x3e6a0aba	0.22855654
111	0x3d556f52	0.052108116
112	0xbdd7df57	-0.105406456
113	0xbdb7330d	-0.08945284
114	0xbc89d026	-0.016822886
115	0x3db59244	0.088657886
116	0xbd9560c1	-0.07293845
117	0x3e302730	0.17202449
118	0x3e0cae5a	0.13738385
119	0xbdfaa384	-0.122382194
120	0x3cff6b96	0.03117923
121	0x3da6115e	0.08108781
122	0x3dfcc134	0.12341538
123	0x3c52474c	0.012834381
124	0x3ddffa55	0.10936419
125	0x3e4bd33a	0.19904795
126	0x3e15cfb2	0.1463001
127	0x3db09df4	0.08623877
128	0x3e2ac8d2	0.1667817
129	0x3ded6615	0.11591736
130	0x3dbd7d6f	0.0925244
131	0x3d48860e	0.04895597
132	0xbdf0cbd6	-0.117576286
133	0x3e87a696	0.26494282
134	0xbd3cf773	-0.046134423
135	0xbd4c9c3f	-0.049953695
136	0xbd8eed3c	-0.069788426
137	0xbd487c73	-0.04894681
138	0x3dedb2f1	0.11606396
139	0xbda7a6f8	-0.08186144
140	0x3d3826e7	0.044958975
141	0xbda0f30d	-0.07858858
142	0xbdf574a5	-0.11985139
143	0xbd4022cb	-0.04690818
144	0xbd32f8a4	-0.043694153
145	0x3e4c09f4	0.19925672
146	0x3d96760d	0.07346735
147	0xbd23f8eb	-0.04003231
148	0xbcd83852	-0.026394043
149	0x3d3ab282	0.045580395
150	0x3d81512f	0.06314313
151	0xbdc5a810	-0.09651196
152	0x3e90f59b	0.28312382
153	0x3cd16aab	0.025563559
154	0x3e124ebc	0.14287847
155	0xbd081a88	-0.033228427
156	0x3d0d14f6	0.034443818
157	0xbd55193f	-0.05202603
158	0x3e1095e5	0.1411968
159	0x3d9dea3f	0.077106945
160	0xbd11430f	-0.035464343
161	0x3d38faca	0.045161046
162	0x3d9f73f5	0.07785789
163	0xbdc9b962	-0.09849812
164	0xbde4d6a8	-0.11173755
165	0xbca0d699	-0.019633578
166	0x3df296ba	0.11845155
167	0xbc53b6bb	-0.012921984
168	0xbc330435	-0.010926296
169	0xbc8994e0	-0.016794622
170	0xbd64f492	-0.055897303
171	0xbd363c0b	-0.044490855
172	0x3b511c16	0.003190761
173	0x3e356fed	0.17718478
174	0xbc9038e6	-0.017605256
175	0x3d8982a7	0.06714373
176	0x3d3ad1a8	0.0456101
177	0x3d6fdb13	0.058558535
178	0xbd88622d	-0.066593505
179	0xbd0933e2	-0.033496745
180	0x3d75ae34	0.059980586
181	0x3dc07dbb	0.09398981
182	0x3d822d55	0.06356303
183	0xbdcde90e	-0.10054217
184	0x3e6c04bf	0.23048685
185	0xbd366950	-0.044534028
186	0xbd99892d	-0.07496867
187	0xbde89261	-0.113560446
188	0xbc822abe	-0.015889522
189	0x3c9258f2	0.017864678
190	0x3e92d6a7	0.28679392
191	0x3dc7a0c3	0.0974746
192	0x3c06332a	0.008190909
193	0x3d80adf8	0.06283182
194	0x3d070c1e	0.03297054
195	0xbd6118de	-0.054955356
196	0xbd86a457	-0.06574314
197	0x3e1febfd	0.15617366
198	0xbd9c5b26	-0.07634573
199	0xbe1a0329	-0.15040268
200	0x3aadbbd4	0.001325483
201	0x3e0c81d8	0.13721406
202	0x3c3f4fc8	0.011676736
203	0xbd84ec29	-0.064903565
204	0xbe03f296	-0.12885508
205	0xbca363c9	-0.019945042
206	0x3ce5870c	0.028018497
207	0xbd3dfb0e	-0.046382003
208	0x3e46a4fa	0.19398871
209	0x3daf7d12	0.08568777
210	0x3cad7774	0.021175124
211	0xbc32ea61	-0.010920138
212	0xbcbbc564	-0.022921272
213	0x3dce677f	0.10078334
214	0xbd178129	-0.03698841
215	0xbd13612a	-0.035981335
216	0xbc246e02	-0.0100359935
217	0x3e4ff373	0.20307712
218	0x3d9c4e16	0.07632081
219	0x3e752282	0.23938945
220	0x3e3f5d0c	0.18687838
221	0x3e8f57f6	0.27996796
222	0x3e1c04db	0.15236227
223	0x3d7e4339	0.062075827
224	0x3dd0dc52	0.10198273
225	0x3da0f143	0.07858517
226	0xbcdb5eac	-0.026778542
227	0xbd49e0ee	-0.049286775
228	0xbde200cc	-0.11035308
229	0xbe14bb8f	-0.14524673
230	0x3d4e09ac	0.050302193
231	0x3de7cfb2	0.113189116
232	0xbd93976b	-0.07206615
233	0x3df9bc77	0.1219415
234	0xbdfd8956	-0.123797104
235	0x3cef39af	0.02920231
236	0xb998039a	-0.00028994383
237	0x3e6f5101	0.23370744
238	0x3e720eb7	0.23638426
239	0x3d8dbc19	0.069206424
240	0x3d7cc983	0.061715614
241	0xbd377eb2	-0.04479856
242	0xbe27c10f	-0.1638224
243	0xbdf306e2	-0.11866547
244	0xbe4f7b65	-0.20261915
245	0xbdff090b	-0.12452897
246	0xbdc5f4cc	-0.09665832
247	0x3d0ba896	0.034096323
248	0xbcfc0359	-0.030763315
249	0xbc76244f	-0.015023305
250	0x3df496d8	0.11942834
251	0x3ca4d7ab	0.02012237
252	0xbcbfe5eb	-0.023425063
253	0xbe21aeb1	-0.15789296
254	0x3e1c7282	0.15278056
255	0xbdb9298d	-0.09041128

l1.bias f4 [8]
0	0x3e0b618c	0.1361143
1	0x3e8d4cb6	0.27597588
2	0x3ddacafd	0.10683248
3	0x3e200bb7	0.15629469
4	0x3ea65572	0.32487065
5	0x3ecc04a3	0.39847288
6	0x3e85e7f1	0.2615352
7	0x3e5d67eb	0.21621673

l2.weight f4 [8, 8]
0	0x3f3cf279	0.73807484
1	0xbe352aaa	-0.17692056
2	0x3f29ef0c	0.6638038
3	0x3ecc27d1	0.39874128
4	0xbe048ba7	-0.12943898
5	0xbeeee0e0	-0.4665594
6	0x3e8f2ad8	0.27962375
7	0x3c8ae93c	0.016956918
8	0x3e98d341	0.29848674
9	0xbea9b59b	-0.33146366
10	0x3df2dee2	0.11858918
11	0x3efee236	0.4978196
12	0x3f4471e2	0.7673627
13	0xbf229bfa	-0.6351925
14	0x3eaa7535	0.33292547
15	0x3e65ef34	0.2245453
16	0xbeb8d2a8	-0.36098218
17	0x3d293146	0.041306756
18	0xbf303e8c	-0.6884544
19	0xbf4d39e2	-0.8016645
20	0x3e69e3a2	0.22840741
21	0x3f5ff4a5	0.8748267
22	0x3f075eb9	0.5287891
23	0x3ec69349	0.38784245
24	0xbe97f99a	-0.29682618
25	0x3f7b2aba	0.9811207
26	0xbd219684	-0.039450184
27	0xbe7eb363	-0.24873118
28	0x3f4cefb8	0.8005328
29	0x3e0c102c	0.13678044
30	0x3f3b255d	0.73103887
31	0x3c85eb2f	0.016347496
32	0xbe8d1008	-0.27551293
33	0x3eb561ce	0.35426182
34	0xbd2eb857	-0.04265627
35	0x3de92116	0.11383264
36	0xbe5ff8ae	-0.21872208
37	0x3ea8332c	0.3285154
38	0xbf2260f1	-0.6342917
39	0x3f661587	0.898766
40	0xbeceed51	-0.40415433
41	0x3f24db78	0.6439738
42	0x3e88ad60	0.26694775
43	0x3ee16e6e	0.44029564
44	0xbe7fd50f	-0.24983619
45	0x3f69c671	0.9131842
46	0x3e7e5c3a	0.24839869
47	0xbf33cc41	-0.7023354
48	0xbef9e9ce	-0.4881119
49	0x3f393727	0.7234978
50	0xbeba0c12	-0.36337334
51	0xbe1de97a	-0.15421095
52	0x3ed823ba	0.42214757
53	0x3f3d0589	0.7383657
54	0x3f086ab9	0.53287846
55	0xbe873e48	-0.26414704
56	0xbe773883	-0.24142651
57	0x3e13f399	0.14448394
58	0x3f8c806c	1.0976691
59	0x3f5def9b	0.86693734
60	0xbef8ce28	-0.48594785
61	0xbeeff463	-0.4686614
62	0x3f10cd3a	0.5656315
63	0x3e328d15	0.17436631

l2.bias f4 [8]
0	0x3e9e8d18	0.3096702
1	0x3e09e73e	0.13467118
2	0x3f0d1837	0.55115074
3	0x3d8d6824	0.06904629
4	0x3eb5364f	0.35392997
5	0x3e673b7d	0.22581287
6	0x3e2c82ee	0.1684682
7	0x3e01104f	0.12603877

l3.weight f4 [28, 8]
0	0x3e23eb16	0.16007647
1	0x3f00bae4	0.5028517
2	0xbda52e3e	-0.080654606
3	0xb982912c	-0.00024903694
4	0xbf0da830	-0.5533476
5	0xbf08ae85	-0.53391296
6	0xbf02b288	-0.5105367
7	0x3e5ad3e1	0.21369888
8	0x3e6c4677	0.23073755
9	0x3eca5092	0.39514595
10	0xbf067a0c	-0.5252998
11	0xbe4845d1	-0.19557883
12	0xbe95c9be	-0.2925548
13	0xbf60fdf8	-0.87887526
14	0xbdf27b77	-0.11839955
15	0x3ec882ca	0.39162284
16	0xbda1428b	-0.0787402
17	0x3e9520cf	0.29126593
18	0xbd130b44	-0.035899416
19	0xbe9a3163	-0.30115804
20	0xbe80d219	-0.25160292
21	0x3ec8bf72	0.3920856
22	0x3d87b2fe	0.06625937
23	0x3e2d96a0	0.1695199
24	0xbe9190f0	-0.2843089
25	0xbf3dab33	-0.74089354
26	0x3e99356c	0.2992357
27	0xbef6c977	-0.4820058
28	0x3e7ff1e4	0.24994618
29	0x3ebf11c4	0.37318242
30	0xbe112417	-0.14173923
31	0xbe753b19	-0.23948325
32	0xbe870f09	-0.26378658
33	0x3cc803b5	0.02441583
34	0x3c99b45c	0.01876276
35	0x3e454913	0.19266157
36	0x3dcc522b	0.0997661
37	0xbe92dc8e	-0.28683895
38	0x3d32da48	0.0436652
39	0xbe801240	-0.25013924
40	0xbcc2cca7	-0.023779226
41	0xbf7d8f8b	-0.99047154
42	0x3dd55956	0.1041743
43	0x3ec51e2e	0.38499588
44	0xbec83efe	-0.3911056
45	0x3f0ac015	0.54199344
46	0x3d81b7a6	0.06333856
47	0x3ecf6058	0.40503192
48	0xbec18bda	-0.3780201
49	0xbeb8cc86	-0.3609354
50	0x3ea8c60b	0.32963595
51	0xbcc2b423	-0.023767537
52	0x3df26d15	0.11837212
53	0x3e42c3f3	0.19020061
54	0x3ebfed0b	0.37485537
55	0xbf17846c	-0.59186435
56	0x3e3a05ac	0.18166226
57	0xbee49143	-0.44642076
58	0xbcc193f8	-0.023630127
59	0xbf37cca9	-0.7179666
60	0x3d8286dd	0.063733794
61	0xbdfc07e2	-0.12306191
62	0xbeaf5119	-0.3424156
63	0x3e10273e	0.1407747
64	0x3cf5ae7a	0.029990423
65	0xbef1e72d	-0.47246686
66	0xbea19c28	-0.3156445
67	0xbe02535a	-0.12727109
68	0x3c5c1b0c	0.013434183
69	0x3e6e9350	0.23298383
70	0x3ec3baf9	0.38228586
71	0xbedaa825	-0.4270641
72	0x3d760162	0.060059913
73	0x3eb7e6e7	0.35918352
74	0xbef72cdf	-0.4827642
75	0x3e864383	0.26223382
76	0xbf1bd368	-0.60869455
77	0x3e875468	0.26431584
78	0x3dc9b918	0.09849757
79	0x3e8b0dde	0.27159017
80	0x3d707f1c	0.05871497
81	0xbe8db970	-0.2768054
82	0xbebe4fa0	-0.37170124
83	0xbf39d16b	-0.7258517
84	0xbaeb8654	-0.001796911
85	0xbecfd137	-0.40589306
86	0xbf24e09d	-0.6440523
87	0x3d81f0e4	0.06344774
88	0xbe338a82	-0.17533305
89	0xbf2a80c5	-0.66602737
90	0x3e043f98	0.12914884
91	0xbe02be89	-0.12767996
92	0x3e2e9852	0.17050293
93	0xbe982cb8	-0.29721618
94	0xbcc4456d	-0.023958886
95	0xbdf6d6c4	-0.12052682
96	0xbeda93f1	-0.42690995
97	0xbe9cdf63	-0.3063918
98	0x3f0b2f96	0.54369485
99	0x3f11c2fa	0.56938136
100	0x3e5fc27c	0.21851534
101	0xbc7d9076	-0.015476337
102	0x3f17e5b8	0.593349
103	0xbeffb482	-0.49942404
104	0x3dab8c3a	0.083763555
105	0xbe471fe9	-0.19445767
106	0xbe45611e	-0.19275329
107	0x3a03c438	0.0005026492
108	0xbf0e3ba6	-0.55559766
109	0xbf64c668	-0.89365244
110	0xbe093c4b	-0.13401906
111	0xbeec34cc	-0.4613403
112	0x3ead0211	0.3379064
113	0x3e525ee7	0.20544015
114	0xbe8a19fc	-0.2697295
115	0xbf092cba	-0.5358387
116	0x3c62e1ed	0.01384781
117	0xbdf726c9	-0.120679446
118	0xbe83885d	-0.25689974
119	0x3eec1bfa	0.46115094
120	0xbe523ae5	-0.20530279
121	0x3d14e571	0.036351625
122	0x3ea7891f	0.32721803
123	0x3ece305b	0.40271267
124	0xbe7d6d25	-0.24748667
125	0x3e80ffba	0.25195104
126	0x3e502ae8	0.20328867
127	0xbf2ae516	-0.6675581
128	0x3e017c53	0.12645082
129	0x3ea381d1	0.3193498
130	0xbefc6866	-0.492984
131	0x3e408995	0.18802483
132	0x3e8cdd84	0.27512753
133	0xbf386a2e	-0.7203702
134	0xbede5908	-0.434273
135	0xbd910950	-0.07081854
136	0xbed4d66a	-0.41569835
137	0x3d337dd5	0.043821175
138	0x3ece8e9c	0.40343177
139	0xbc9e142a	-0.019296724
140	0xbec53a0e	-0.38520855
141	0x3e8652de	0.26235098
142	0x3ee36d0a	0.44419128
143	0xbf3f3fcb	-0.74706715
144	0x3ea5baaa	0.32368976
145	0xbe071d8a	-0.13194862
146	0x3eeebf66	0.466304
147	0xbe85c08a	-0.26123458
148	0xbe991de2	-0.2990561
149	0xbf3ed09c	-0.7453706
150	0xbe8dc035	-0.27685705
151	0xbec78214	-0.3896643
152	0x3dc9ee1d	0.0985987
153	0xbf0e6e9c	-0.55637527
154	0xbe9042d4	-0.28175986
155	0xbf01775b	-0.50572747
156	0x3cf628f5	0.030048827
157	0xbe9317fe	-0.28729242
158	0xbef0429e	-0.46925825
159	0xbf80b711	-1.0055867
160	0x3de1e63c	0.11030242
161	0x3e479d98	0.19493711
162	0xbeab1582	-0.33414847
163	0xbf029ff7	-0.51025337
164	0x3e83a59a	0.2571228
165	0xbe17af3c	-0.1481294
166	0xbf230951	-0.6368609
167	0x3e7074be	0.23482034
168	0x3e4c94ab	0.19978587
169	0x3d526328	0.051364094
170	0xbe8cccbc	-0.2749995
171	0x3e7e608f	0.24841522
172	0xbea8060b	-0.3281711
173	0xbed9a0c0	-0.42505455
174	0x3e01129c	0.12604755
175	0x3eb00008	0.34375024
176	0x3ca839e9	0.020535426
177	0xbd32b889	-0.043633018
178	0xbdb6513a	-0.089022115
179	0x3e0f38a8	0.13986456
180	0xbef76efc	-0.48326862
181	0x3def5718	0.11686534
182	0x3ed9ff98	0.42577815
183	0xbeb54699	-0.35405424
184	0xbe45b2c1	-0.1930647
185	0xbf38ebdf	-0.7223491
186	0xbe810a2d	-0.25203076
187	0xbed53349	-0.4164069
188	0x3eb0e719	0.34551314
189	0x3e7e6531	0.24843289
190	0xbd2770db	-0.04087911
191	0x3aaeb314	0.0013328516
192	0x3e528da3	0.20561843
193	0xbecccfa5	-0.4000217
194	0xbf19f80f	-0.6014413
195	0x3c8db517	0.017298264
196	0xbe2aeb56	-0.16691336
197	0x3e766aae	0.24064133
198	0x3e3631e5	0.17792471
199	0x3eb61488	0.3556254
200	0xbd019e54	-0.031645134
201	0xbe2f400f	-0.1711428
202	0x3e1cc459	0.15309276
203	0xbf1a8478	-0.6035838
204	0x3eab9ce9	0.3351815
205	0xbe3a87e1	-0.18215896
206	0xbefc879c	-0.49322212
207	0xbf1babbe	-0.6080893
208	0xbe6c0720	-0.23049593
209	0x3da09b6a	0.07842143
210	0xbe2f11c6	-0.17096624
211	0x3d9fb6bb	0.07798525
212	0x3dbc1b98	0.091849506
213	0x3e04b7bd	0.12960716
214	0x3e811b15	0.25215974
215	0x3dd9c9f8	0.106342256
216	0x3e1dc1f0	0.15406013
217	0xbe075034	-0.13214189
218	0xbeab9596	-0.33512563
219	0xbe7cfe04	-0.24706274
220	0x3d92f42b	0.071754776
221	0xbef104c1	-0.4707394
222	0xbe8470cd	-0.2586731
223	0x3d997a3c	0.074940175

l3.bias f4 [28]
0	0xbd1248d5	-0.03571399
1	0xbdda90f9	-0.106721826
2	0xbe56f246	-0.20990857
3	0xbd1a7684	-0.03771068
4	0xbe4c1778	-0.19930828
5	0xbc9e525d	-0.019326383
6	0xbd33864b	-0.043829244
7	0xbd8e8af1	-0.06960095
8	0x3e8708f1	0.2637401
9	0xbeaf8921	-0.3428431
10	0xbd2c67f8	-0.04209134
11	0xbe17defb	-0.14831154
12	0x3db12933	0.08650436
13	0x3e927ffe	0.28613275
14	0x3d940aeb	0.07228645
15	0xbdacf924	-0.08445957
16	0x3e83fe46	0.25779933
17	0x3d8b082c	0.06788668
18	0x3e8812ac	0.26576746
19	0x3e07ca6e	0.13260815
20	0xbe91e603	-0.28495798
21	0xbd90f231	-0.07077444
22	0xbe92d5e4	-0.2867881
23	0xbdf1d743	-0.11808636
24	0x3e91882c	0.28424203
25	0xbde19cfa	-0.11016269
26	0xbd34b405	-0.044116993
27	0x3e9a1f2f	0.30101916
